cifar10/cifar_net.pth (torch, 250887 bytes, 10 tensors)

conv1.weight f4 [6, 3, 5, 5]
00000000: 73c6 e43e c0a2 8b3e 671f 2b3d bf06 af3d
00000010: b446 9a3e 24a3 a7bd 3075 1fbe 71b9 54be
00000020: 8ca7 cbbd 7984 57bd 07d2 b7be c7e6 fabe
00000030: 0080 d3be 188d b7be c664 40be 4782 29be
00000040: 9391 09be ac94 b8be 6bd0 6bbe 02c2 75be
00000050: a819 08bf 5895 dbbe 56aa 8abe 65e6 05bf
00000060: 786c c0be 2a9d 4ebd f284 0dbe 7ed3 9cbd
00000070: 0a00 30be 3835 74bc a73a 2bbd f410 093d
00000080: 723e 6b3e 6b3c 903b cebd d53b 6ad9 b63d
00000090: 3d53 a23c 3376 b23d 7314 3cbd f1a8 e3bd
000000a0: 26df 033c e107 123e 05bb 893e f2ff 0c3e
000000b0: 847d d7bd 4195 a8be 1936 02bc 3c89 ed3d
000000c0: 8662 b33c 5665 25be a0d2 5dbe 3868 56bc
000000d0: fb38 28bd ef2a a6bd a260 d83c 657a d93d
000000e0: 4e05 c83e a7a2 ec3e 1720 613e 0463 3bbd
000000f0: a8e6 1a3e 3704 ec3e 07fa 973e 2796 113e
00000100: f426 18be 6c88 af3e 6f6d 173f 1484 043f
00000110: 7caa bf3e 4bec 173d 3a7b fcbd edb7 053f
00000120: f880 2f3f c620 b13e e7c5 103e f9ef d9be
00000130: baea c6be 439b 25be 0c67 2cbe 0d2b 17be
00000140: a82f 16be 32aa 383d 8962 c03c 6be3 303d
00000150: f32b 963d c0af 0e3e ffe1 843e 8f18 1b3e
00000160: 5979 1e3d 6d9c 9d3d 6c26 803e 6e21 d13e
00000170: 10a6 4d3e 8a32 563e 58f6 6e3e 9eba 913e
00000180: 2d22 8d3e 2dc4 61bc 7f82 753d 268b 933e
00000190: 7d4b 88be fd3a 04be f20b 3f3e 65bd bf3b
000001a0: 0779 87be 2387 9bbe 4584 ec3d bc3d 6f3e
000001b0: d6a1 7a3e de68 5fbe 7580 82be 5445 4d3d
000001c0: fc4b 2b3e c401 0bbd eabc 23be 9977 3cbe
000001d0: a765 e3bd 283c bdbd 68fc b1bc 10d1 55bb
000001e0: a2e6 77bd 0b1c dcbd ad96 b4be a6dc 81be
000001f0: 2c24 17bd 531d 963d 99cc 913e 6ecc ff3e
00000200: 5e11 dc3e 338c 4ebe 01f1 49be 253b ea3e
00000210: 0e01 1d3f 4622 c33e 1566 d43d de68 21bd
00000220: dd33 9d3e af60 b13e e68a ae3e de56 8dbc
00000230: 2458 b13c daa6 be3d a5bf babc e980 5dbc
00000240: 74ae 06be f73c 2ebd 5a2b f8bc f852 82be
00000250: 1ec6 1abe 2844 01be a71b a6bd 5abf febe
00000260: e0fc 293e 029f c93e adc2 b1be 1863 2abe
00000270: fa9a 0fbf f81d 873c 9d0f 663f f3d9 a0be
00000280: 4109 58bd 2024 b53e 3d32 fbbe 33dc 0dbf
00000290: 294e 163f 02b9 053f 21df 983f a58d 13bf
000002a0: 0f16 9fbf 0cd5 8c3e 6d0d bc3c dfad c7bc
000002b0: cf57 4f3e 254b 5d3e 8958 6dbe dbe9 ae3d
000002c0: c8cd f4be c5df 273e de0a 0b3f f154 16bd
000002d0: 4625 aa3d 021e 03bf 3300 d1bc cdc0 3a3f
000002e0: 3931 ffbc df4a 153e 0d06 043f f1fa 0ebf
000002f0: 5245 e8be 296c 113f 8d5e 0a3f 9341 983f
00000300: 5566 16bf 2410 80bf 9e33 d93d 986d 72be
00000310: 6f66 1cbe eb55 cf3d b72b 963d 2b7a 73be
00000320: 95eb 02be 4350 f4be 0592 ac3e dbef 8b3e
00000330: 5ca9 e8be c35f 37bd 1f91 95be baca 3ebd
00000340: 48bf 0e3f ec43 a3be 6391 473e 66c8 003f
00000350: 584e f3be 5db8 10bf 6907 5d3e aca3 ab3e
00000360: b5f8 9f3f a006 bbbe b008 7bbf 0524 4abd
00000370: c8c9 74be cea0 783d fd6e f33e 900a 553e
00000380: 6f86 39be 3a74 fe3b 4e4d 893e 62ad 073e
00000390: 3118 c03c 7125 423e 2ee1 073e 583a a4be
000003a0: f567 31be 574c 283e 5066 79bd 2185 163f
000003b0: 0962 4cbf 11a8 06be 44fa 413f 7aa9 4abe
000003c0: aaf8 0f3f 30f1 98bf 5675 41bd 36e9 613f
000003d0: bffd dfbe 2ee4 8c3e a50b 4ebf 5efe 323e
000003e0: 7269 153f bbf7 00be 43a8 c83c cf05 a7be
000003f0: c2a2 ddbe d49e 2fbd e982 f4bd 21b8 203f
0.44682655 0.27272606 0.041777994 0.085462086 0.30132067 -0.081854135 -0.15572047 -0.20773865
-0.099440664 -0.05261657 -0.35902426 -0.49004194 -0.41308594 -0.35849833 -0.18788442 -0.16553603
-0.13434438 -0.36050928 -0.23028724 -0.2399979 -0.5316415 -0.42887378 -0.2708308 -0.5230468
-0.37582755 -0.050442852 -0.13820246 -0.076575264 -0.17187515 -0.014905266 -0.041803982 0.033463433
0.2297304 0.0044017336 0.0065228706 0.08928187 0.019815082 0.08713951 -0.04591794 -0.111162074
0.008048808 0.14260818 0.26900497 0.1376951 -0.10521987 -0.32926372 -0.007947468 0.11598441
0.021897566 -0.16151938 -0.21662378 -0.013086371 -0.041069966 -0.08113658 0.026413266 0.10619048
0.39066547 0.46217844 0.21984898 -0.045748726 0.15127051 0.46096966 0.29682943 0.14217435
-0.1485861 0.3428377 0.5915136 0.51764035 0.37434757 0.03709058 -0.12328191 0.52233773
0.68556166 0.34595317 0.14137994 -0.42565897 -0.38850957 -0.16172509 -0.16836184 -0.14762516
-0.14666617 0.045084186 0.023484485 0.043185633 0.073326014 0.13934231 0.2595367 0.15146087
0.038689945 0.076958515 0.25029314 0.40845817 0.20082879 0.20917717 0.2333616 0.2846269
0.27565137 -0.013779682 0.059938904 0.288171 -0.26620093 -0.12913127 0.186569 0.005851435
-0.26459524 -0.3037654 0.11548666 0.23363394 0.24475798 -0.21817347 -0.2548863 0.050114945
0.16728204 -0.03393723 -0.15990034 -0.18404998 -0.11103373 -0.092399895 -0.021726802 -0.0032625832
-0.060522683 -0.10747536 -0.35271206 -0.25363654 -0.03689973 0.07329812 0.28476408 0.49960655
0.42982 -0.2017067 -0.19720842 0.4574825 0.61329734 0.38112086 0.10371033 -0.03940665
0.3070363 0.34644076 0.34090346 -0.017253336 0.021648474 0.09309168 -0.022796461 -0.013519504
-0.13152486 -0.04253861 -0.03029411 -0.25453925 -0.15114638 -0.12623656 -0.08110743 -0.49755365
0.1660037 0.39379126 -0.34718838 -0.16639364 -0.5609585 0.016493782 0.89867574 -0.31416282
-0.0527432 0.35379124 -0.49061766 -0.5541412 0.5871301 0.52235425 1.1943094 -0.5763801
-1.2428607 0.27506292 0.02295562 -0.0243749 0.2024834 0.21610697 -0.23178305 0.08540698
-0.4781325 0.16393955 0.54313457 -0.0367021 0.083078906 -0.51217663 -0.02551279 0.7295044
-0.0311514 0.14579342 0.5157173 -0.55851656 -0.45365387 0.56805664 0.54050523 1.1895012
-0.58749896 -1.0004926 0.10605548 -0.23674619 -0.1527345 0.101238094 0.07332557 -0.23777072
-0.1278518 -0.47717485 0.33705154 0.27331433 -0.4544171 -0.04476906 -0.2921228 -0.046580054
0.5576062 -0.31887758 0.19489054 0.50305784 -0.4752071 -0.56531316 0.21584858 0.3352331
1.2497774 -0.36528492 -0.9806013 -0.049350757 -0.23905098 0.06070023 0.47545615 0.2080481
-0.18117689 0.00776532 0.2681679 0.13249734 0.023449035 0.18959595 0.13269493 -0.32075763
-0.17324813 0.16435371 -0.06088859 0.5879689 -0.7983709 -0.1315005 0.757725 -0.19791213
0.56238806 -1.1948605 -0.04723104 0.88246477 -0.4374828 0.27517837 -0.8048652 0.17479846
0.5836402 -0.12594502 0.024494296 -0.3262162 -0.43288237 -0.04287608 -0.11939032 0.6278096

conv1.bias f4 [6]
00000000: b974 dd3e 85c0 48bd a8fb a0be fb50 cdbe
00000010: 724b 39bf 233f 1cbf
0.43253115 -0.049011726 -0.31441998 -0.40100846 -0.72380745 -0.6103384

conv2.weight f4 [16, 6, 5, 5]
00000000: 922a 9ebc e555 a9bd 29a1 233d 2205 a2bd
00000010: 5829 e83d 5cd4 3bbe f571 00be 7203 50bb
00000020: ed64 b3bc 7d61 e63d 3d54 ef3c 6b1a 4f3d
00000030: 5f59 853e 929f b83d 97a5 433d 3cbc 493e
00000040: 99cf 843d c808 213e 2dfa 5b3d c408 aa3d
00000050: ab1a 343e 837c 933d 9392 d53c ab4a 20bd
00000060: 8763 893d 8a53 8c3d d94c 26be c367 7bbe
00000070: 9bb7 1abe aae0 093e b4ce 483c 5c57 66be
00000080: 5f44 47be ade0 1abe 075e 5f3e 65d7 babd
00000090: 2a0c 633e 8262 f33d fe42 83bb 6265 ed3d
000000a0: 4eba 543e 5036 603e a243 293e 9f8d cb3c
000000b0: 086e 21bc 76fb 89bd b494 2bbe 68bc 28bd
000000c0: 99fa dabd 2c47 0f3e ebc3 903e a8bc 6f3c
000000d0: 7747 9abe d33d e3bd e023 88bd 7fd4 d83d
000000e0: 53ce debd c451 9f3e dab9 863c 3cb9 a4be
000000f0: d6f8 cabd 8fa4 2ebe 5ad7 233d 54d3 1f3e
00000100: 9c92 d8bc 8324 e23e 7afe 213e 3015 74be
00000110: cb57 153e d1f4 2d3e 2507 ea3d e49b 0b3c
00000120: 313c d23e 3a36 fe3c 04ab f1be 3f0b b1bd
00000130: 1492 bbbe de4d 223e 2caf 2bbd fc2f 3b3e
00000140: c68b e0be de05 febe e95c 3fbf 1d2f 27bf
00000150: d2e8 dabe 588e 96be 2a61 37bf 7af4 7bbf
00000160: 404a 65bf 909d 08bf 962d e3bd d781 5fbe
00000170: 469d e1bd 248a 00bf 5914 5ebe 4160 983e
00000180: 25da 37bd 5131 363e a13f 433c d548 bebe
00000190: 0a23 413e 77de df3d 9f8d 813e f16f b03e
000001a0: 41a4 323e bc3a 94bd d75b 23be 0c0c 5dbe
000001b0: c743 fdbd cecf 35be 7d94 743e 18cd a1be
000001c0: 04de 04bf 7bae f2be 35ea 06bf 0ae3 c43d
000001d0: 87e1 9f3d e917 01be 1f31 76bd f0dd 2f3c
000001e0: 3b76 4dbc 7bb6 173e 9599 1e3e 8914 4f3e
000001f0: de9b bd3c ff05 7b3e 7c61 0ebe e538 33be
00000200: 4380 89bd 6b7c 693e b868 b23e 1cbe c43d
00000210: 2245 713e 99f1 553e dfca 613e 1e9c bd3e
00000220: aefe 003d 69e6 793e e764 843e a397 833e
00000230: 3ad6 b43d d456 703c 60b8 06be b2fd 55bd
00000240: 6ac5 103e 46cb a53d be67 e53d f776 7c3d
00000250: 19e9 08be 51b6 b3be 2afc 78be e8e6 1a3e
00000260: 5223 5abd 51f6 fcbd e565 ffbd de02 08be
00000270: 079e 9cbd f605 623d 931b 82bd 97a6 afbd
00000280: 3f78 403e f42f b2be 88cd 9abd ca58 d33d
00000290: be63 3cbe a291 4b3e 16f8 7abd d619 42be
000002a0: 5277 2a3d 1679 10be d9b9 8b3e 88e8 923e
000002b0: 4e49 033e af6c 083e 4d45 ccbc 7eb1 473d
000002c0: 3385 4bbe 34ac 5ebe 26bd e1bd 15be 9bbe
000002d0: 852f 46be e651 31bc 0392 b0bc 4b4d 423e
000002e0: 94df 263e 8a1f 54be 7c4c 04be bf12 093c
000002f0: 47f2 d7bb 6892 213e 8c0b e13d ab47 78be
00000300: 28a3 3dbb 712f 393b 69ab 223d 70ba 593e
00000310: 43cc 9e3e 9c06 5b3e 4d52 fa3d ffc6 1f3e
00000320: c0a3 9d3d 0651 11bd bf99 aa3e de47 0abe
00000330: 0151 603e 06f9 c33e 32d0 9ebe 4954 eb3d
00000340: 5dcb f33d 85d7 a93d f6ee b03e 5d82 293f
00000350: 2d53 eabe 0eae 0bbb 6a9c 0dbe 37e6 c1be
00000360: 1c57 e33e 595f 983e 860b 68be 986b 13bb
00000370: f1fc f1be 650f dbbe 5f0c 46be 7e6e bbbd
00000380: bcde 45bd 8f9a ab3e 3c14 03bd 8c0f 4a3e
00000390: 72a1 833e da80 0e3e c5cd 1e3e 2648 7bbd
000003a0: 2d1c 95be 61c4 293d 9d80 fdbd d179 a6bd
000003b0: 87f6 183e c15a 04bc e2c1 22be 05d0 823a
000003c0: ef72 e6be 9178 59be 0d61 31be 2454 47be
000003d0: da87 df3d d5e0 b4be a1b7 21bf 2b4e 1cbf
000003e0: 976d 00bf 121c a9be c37d ea3e 0707 63be
000003f0: 6ec7 a1bd 9d65 d0bd 45d1 d93d d1d1 543e
-0.019307408 -0.08268336 0.039948616 -0.07911135 0.11336011 -0.18342727 -0.12543471 -0.0031740335
-0.021898711 0.11249063 0.029214973 0.050562304 0.26044747 0.090148106 0.04776534 0.19700712
0.064849086 0.15726006 0.053705383 0.08302453 0.17588298 0.07201483 0.026070869 -0.03913371
0.067084365 0.06851871 -0.16240253 -0.245513 -0.15109102 0.13464609 0.012256313 -0.22494262
-0.19459675 -0.1512477 0.21813212 -0.091231145 0.22172609 0.11884023 -0.004005789 0.11591603
0.20774195 0.21895719 0.16529706 0.024847804 -0.009852894 -0.067374155 -0.16755944 -0.041195303
-0.10692329 0.13991994 0.28274474 0.0146323815 -0.30132648 -0.110957764 -0.066474676 0.105874054
-0.10879197 0.3111707 0.016446043 -0.32172573 -0.09910743 -0.17054962 0.040000297 0.15607959
-0.026437096 0.4416848 0.15819731 -0.23836207 0.14584272 0.16987921 0.11427144 0.008521054
0.41061547 0.031031717 -0.47200787 -0.08644723 -0.36634886 0.15850016 -0.041915104 0.18280023
-0.4385664 -0.4961385 -0.74751145 -0.65306264 -0.42755753 -0.29405475 -0.71632636 -0.98419917
-0.8956642 -0.5336542 -0.11092679 -0.21826874 -0.11016326 -0.50210786 -0.2168745 0.29760936
-0.044885773 0.1779225 0.011917026 -0.3716494 0.18861023 0.10931104 0.2530336 0.34460405
0.1744547 -0.07237765 -0.15953003 -0.21586627 -0.12366443 -0.17755052 0.23884769 -0.31601787
-0.5190127 -0.47398743 -0.5270112 0.09613617 0.07806688 -0.12606777 -0.06010544 0.010734066
-0.012540395 0.14815705 0.15488274 0.20222677 0.023145612 0.24514006 -0.13904375 -0.17502172
-0.06713917 0.22801368 0.3484552 0.09606573 0.23561528 0.20892943 0.22050045 0.3703317
0.03149288 0.24404301 0.25858232 0.25701627 0.08829923 0.014669139 -0.13156271 -0.052243896
0.14137807 0.08095412 0.11201428 0.06163689 -0.1337017 -0.35100034 -0.24314943 0.15127146
-0.05325634 -0.123516686 -0.12470607 -0.13282344 -0.07647329 0.055181466 -0.063529156 -0.08576696
0.1879587 -0.3480221 -0.07558733 0.103196695 -0.18397424 0.19879773 -0.06127175 -0.18955168
0.0416177 -0.1410869 0.27290228 0.28693032 0.12820932 0.1332271 -0.024935389 0.048753254
-0.1987503 -0.21745378 -0.11022405 -0.3041846 -0.19354065 -0.010822749 -0.021553999 0.18974797
0.16296226 -0.20715156 -0.12919801 0.008366286 -0.006590161 0.15778506 0.109885305 -0.24246089
-0.002893636 0.0028257037 0.03971425 0.21262527 0.31015214 0.2138924 0.12222729 0.15603255
0.076972485 -0.03547766 0.33320424 -0.13503978 0.219059 0.38275927 -0.31018215 0.114906855
0.11904023 0.0829306 0.34557313 0.66214544 -0.45766583 -0.0021313461 -0.13829198 -0.37870952
0.44402397 0.29760244 -0.22660646 -0.002249455 -0.4726329 -0.42785183 -0.19340657 -0.09151934
-0.04830812 0.33516356 -0.03200172 0.19732493 0.2570911 0.1391634 0.15508182 -0.061348103
-0.2912306 0.041447047 -0.12378047 -0.081287034 0.14937793 -0.008078278 -0.15894273 0.0009980208
-0.45009562 -0.21237399 -0.17322178 -0.19465691 0.109145835 -0.35327783 -0.6317082 -0.61056775
-0.5016722 -0.33029228 0.45799074 -0.2217065 -0.07899366 -0.10175631 0.10635618 0.20783164

conv2.bias f4 [16]
00000000: ef61 1a3f 400f 03bf 8d8d 9ebf 005e 643f
00000010: dbdd fd3e 208f 00bf 4490 c63f e51d b2be
00000020: 3d51 32bf ed2d c93f 8f2c 4dbf cb16 c4bf
00000030: 41c4 733e 0091 d63f f043 d63c d95e 32bf
0.60305685 -0.51195145 -1.2386948 0.8920593 0.49583325 -0.5021839 1.5512776 -0.34788433
-0.6965521 1.571714 -0.80146116 -1.5319456 0.23805334 1.6763 0.026155442 -0.69675976

fc1.weight f4 [120, 400]
00000000: 5f28 27be 273d d5bc cf9f 353b a125 393c
00000010: 2cdd 1cbe 149f d3bd 907d 783d d58e 9d3d
00000020: e3f7 8abd 9c2d 01be 2fca 51be d8c9 20bd
00000030: 19da 4e3c 168b 44bd d286 1abe 5f72 11be
00000040: 2440 8cbb b5aa 003e 40c3 a63d 61ba 40be
00000050: 2b16 2abd 2344 813e 668a 213e b388 d23d
00000060: 625f 7c3d c69a 39bd 7dd9 cd3c 6e17 43bc
00000070: 0f36 e738 1cca b3bd 7c3b 2abd 77c4 063d
00000080: ff7f 27be 54a9 babc 8af3 0fbd f02e bd3d
00000090: 2c37 cdbd e4ba 50bd c783 3bbe 64d4 babd
000000a0: 8b6a 083d 2959 c73d f3a2 813d abf1 af3d
000000b0: dc7e 613d ed5e ba3d 2963 11bc 3427 c3bd
000000c0: dab3 873c 72f4 1fbd 7752 013e 92d6 383e
000000d0: 293c 353e 2eb4 0f3e 7bbc f93d 518d 0d3c
000000e0: 3920 9c3b e2ce 00bd c0e1 583d 20a6 113c
000000f0: 12f3 1ebc 78b7 343d 76b8 94bd 1fc0 1c3d
00000100: aff8 0cbe 4753 5f3c 01a5 383e 32aa 023e
00000110: 303f 0c3a 4411 3f3d 3dbb b9bc 862d b83d
00000120: 5f99 04bc a467 e1bc 154d 15be a60b be3c
00000130: 75c1 b73d 2726 52bd 22b3 2a3d 4430 c6bd
00000140: 3c98 e2bc f8d1 2f3d 6ddb 44bd 55cc e0ba
00000150: 7042 0ebb 442e aebd fe60 87bd 28b7 013d
00000160: 136b 893d 42ea 5c3e d167 ccbc 1c72 c8bd
00000170: 0e89 cc3d b49e 4ebd 0abf 113e fceb 33be
00000180: 8dc8 1cbe feb1 d5bb 5c6c 24be dcd3 7abc
00000190: 7eb3 063e baa4 b53a 8756 15bd 68a8 bc3d
000001a0: 145e 86bd e7e7 6a3d 3bfa a63d 2e90 eebd
000001b0: c28e 5b3d 8744 97bd ffbe fb3d 9646 1e3e
000001c0: 7e17 013d 5060 ac3d 328f 10be c05e fa3d
000001d0: ba55 b8bd 737b 97bc 859d cfbb f779 09be
000001e0: 42f1 25be bff9 e3bd 3f93 9bbd 637c d1bd
000001f0: 5c13 58be 15a2 813d b916 e7bc e92b a9bd
00000200: a8a7 e8bd 6579 f13b 8200 89bd b802 dabd
00000210: fb89 553d 868e 4abd ddfd a83d 97cc 3abd
00000220: 8de8 3c3e d5a8 543d 2f75 0d3e 25e7 3d3c
00000230: 9cb1 94bc cdfe 8b3d c03d 523d 9936 253d
00000240: 7cf1 6cbd 9d08 06be 501d 82bd 1910 32bd
00000250: 0961 ccbd 18f0 59bc 8af2 903c 4bd1 94bd
00000260: 2261 db3c 8eee 233e 6162 acba 8317 30bd
00000270: 09f0 e7bd 5d54 c03d 4d03 4f3e da53 953d
00000280: b7b4 e83c f68f 843d 5ea7 7c3b 75eb 2e3d
00000290: b403 e13c 285a 37bd dc13 2c3d 526f 193e
000002a0: 7bc1 99bc d0e3 54bd c020 ce3c 07aa d93d
000002b0: aee2 413e c137 a0bd a01d dabb 2c82 32bd
000002c0: 3dfe 1d3d b499 5a3d b5a0 35bd e772 013d
000002d0: 389a b7bd df4f c0bc 75cf ae3d 92af 4b3d
000002e0: 2f80 08bd d407 2fbd b85c 603c 66f6 b43d
000002f0: c7b1 623e 46c7 d33d bff2 c93d 92b2 433c
00000300: c27e 3f3c 5f81 1f3e 93ab 013d 7582 ff3d
00000310: 8499 003c 907d a13b 3ea2 213d 1e90 02be
00000320: 85fa a03e 2ce2 4b3e 350b 2a3e ea91 043e
00000330: c9f1 493d 0adb 253e bc76 803d 8415 e5bc
00000340: e6bb abbd 6401 66be f526 d53d ce96 c23d
00000350: 09b9 e33d 4707 61bc 39eb 35bc 710f 5cbd
00000360: 7a0b a23d c303 a438 96be 97bd cff9 81be
00000370: 624c d5bd f092 dcbd 0207 bcbd b0e0 36be
00000380: 685b a4be 6a20 46bd 07ee e3bd a5d2 7ebe
00000390: bccc 27be 3fea 2a3c 931f 19be 4660 cab9
000003a0: 9c1a 12be cfd9 f8bc 1777 62be 4838 50bc
000003b0: 2f37 473a 3234 323e 06c5 b43c bc86 ecbd
000003c0: dc1d 203d 0fa4 dabd 1f74 01bd c861 36bd
000003d0: ee90 1fbe d9e6 a33d e180 b0bc bc3b 59bc
000003e0: 7dac 4a3d caf1 4f3c 38ad a83b 82e0 be3d
000003f0: d8fa 11be 0d9f 5c3d d7a5 583e 58d6 143e
-0.16323994 -0.026030136 0.0027713662 0.011300475 -0.15318745 -0.10333076 0.06066662 0.07693259
-0.06785562 -0.12615055 -0.20487283 -0.039254993 0.012625241 -0.047984205 -0.15090492 -0.14203785
-0.004280107 0.1256512 0.0814271 -0.18821098 -0.041525047 0.25247297 0.15775451 0.102799796
0.0616144 -0.04531362 0.02512812 -0.011907442 0.000110250076 -0.08778784 -0.041560635 0.032902207
-0.1635742 -0.02278582 -0.035144366 0.09237468 -0.10020289 -0.050959483 -0.18311988 -0.091225415
0.033304732 0.09733803 0.06329908 0.085910164 0.055052623 0.09100137 -0.008873739 -0.09528962
0.016565252 -0.03905148 0.12629114 0.18050602 0.1769873 0.14033577 0.12194153 0.0086396495
0.0047645834 -0.0314473 0.052949667 0.008889705 -0.009701507 0.044120282 -0.07261746 0.03826916
-0.1376674 0.013630695 0.18031694 0.12760237 0.0005349992 0.046647325 -0.02267229 0.08993058
-0.008093207 -0.02751524 -0.14580186 0.023198914 0.08972446 -0.051305916 0.04167474 -0.09677175
-0.027660482 0.04292485 -0.048060823 -0.001715074 -0.002170708 -0.08504918 -0.06610297 0.031668812
0.06709876 0.21573737 -0.024951847 -0.0978739 0.099870786 -0.05044432 0.14233032 -0.1757049
-0.15310879 -0.0065214625 -0.16056961 -0.0153093 0.13154408 0.0013858296 -0.036459472 0.092118084
-0.06560913 0.057350066 0.081531964 -0.11648594 0.05360294 -0.073861174 0.12292289 0.15456614
0.031516545 0.08416808 -0.14117125 0.122251034 -0.09000726 -0.018491482 -0.0063359165 -0.13425432
-0.16205314 -0.1113162 -0.07596444 -0.10228803 -0.21101135 0.06329743 -0.028209077 -0.08260328
-0.11360103 0.0073692077 -0.0668955 -0.1064505 0.05213354 -0.049452327 0.082515456 -0.04560527
0.18448086 0.051918823 0.13814233 0.011590754 -0.018151097 0.06835709 0.05132842 0.04033527
-0.057847485 -0.13089223 -0.06353247 -0.043472383 -0.099794455 -0.013301872 0.017693777 -0.07266482
0.026779715 0.1600897 -0.0013151878 -0.042991173 -0.1132508 0.09391091 0.20216103 0.07291384
0.028406484 0.06472771 0.0038551907 0.042705018 0.027467586 -0.044763714 0.042011127 0.14983872
-0.018769016 -0.05197507 0.0251621 0.10628133 0.18934128 -0.07823134 -0.0066563636 -0.043581173
0.03857254 0.05336924 -0.044342715 0.03160372 -0.08964962 -0.023475586 0.08535663 0.049727984
-0.03332537 -0.042732075 0.013693981 0.08836059 0.22138129 0.10340743 0.09860753 0.01194443
0.011687936 0.15576695 0.031657767 0.124760546 0.007849101 0.0049282983 0.039461367 -0.12750289
0.3144113 0.19910496 0.16605838 0.12946287 0.04930285 0.16196838 0.06272647 -0.027964361
-0.08385448 -0.22461468 0.10407821 0.0950142 0.11119277 -0.013734645 -0.011103445 -0.053725664
0.07912345 7.82083e-05 -0.07409398 -0.253859 -0.104149595 -0.107702136 -0.09181024 -0.17859149
-0.32100987 -0.048370756 -0.111293845 -0.24885042 -0.16386694 0.010431825 -0.14953451 -0.00038600172
-0.14267963 -0.030377297 -0.22115742 -0.012708731 0.00075994706 0.17402723 0.022066604 -0.11549136
0.039090976 -0.10675823 -0.031604882 -0.044526845 -0.1558263 0.08003015 -0.02154583 -0.013258871
0.049480904 0.012691924 0.0051476024 0.09320165 -0.14255846 0.05386262 0.21157013 0.1453489

fc1.bias f4 [120]
00000000: 743c 8ebe ea9b 4f3d d825 f23d ca2a 9c3d
00000010: 2bfb 633e aaf5 d4be f5a8 81bd 55cd ffbc
00000020: b7ee f3bd 1f4f cf3c 7d06 813e 427e 8bbd
00000030: 105c f83c f4dd 81be 0bc1 573e 960a 563e
00000040: d067 f7bd 22db b93c f3fd a6be d3cd 81bd
00000050: afcb bfbd 437a b43b 5783 033e afde 67bd
00000060: a06e fdb9 62cd 8d3e 96dc 07bd 0d9c 013e
00000070: 815e 19be 9d75 293d 18d0 5ebe a2fe a5bd
00000080: 21a6 bd3e 8293 2a3d ce76 c93d d995 6a3e
00000090: b0d3 15be d037 a73d 63d1 043e 9e2c 933d
000000a0: 03ae 1cbc c902 093d 0ee6 dd3d aa49 f5bd
000000b0: cd2b b63c 084e 5c3d 5712 d03e fadc 413e
000000c0: b4c9 b23c 544b 9dbd 1f28 2cbe e91b 64bb
000000d0: f398 20bd ce16 ca3d 6717 593e fc42 80bd
000000e0: c787 69bd adce 273e df59 6a3e 7367 e8bd
000000f0: 3eeb 683d 995b a5bc 7470 043e babc b53d
00000100: 10c1 02be 55e0 e93d 10c1 383d 6006 d73d
00000110: 7910 1c3d 0619 74bd a6ba 723e f05e 06be
00000120: d749 87be 60f9 18be a985 d53d a79e ea3d
00000130: 4840 853e 243d 503e b5ba 66bd 9111 173d
00000140: 08c0 5ebe 50d9 093d aea3 04bd 50b3 5abd
00000150: 9277 863d f0a7 d33b 7809 d7bc 4b48 8f3d
00000160: 4fe4 94bc 4004 85bc 2005 3cbd 388d d63e
00000170: 65b9 5abe eeb3 3abe 2d26 c73d 4456 f8bb
00000180: fe66 933e c42e e93c e35e d7be ec8a e63c
00000190: 0476 28be 0f63 cf3e b147 c1bc b264 df3e
000001a0: 16fb 203e d042 803d 63ec a53e be43 fa3d
000001b0: 842d 9fbe b7cb 963d a2ba 813d b4f4 503d
000001c0: 8a82 f2bc bc3d 49bd ba47 2a3e 0fd1 bbbd
000001d0: f8b4 b53d 57ab 9e3e b24c 773e 0b78 683e
-0.27780497 0.0506858 0.11823624 0.07625349 0.22263782 -0.41593677 -0.06331054 -0.03122584
-0.119107656 0.025306283 0.25200263 -0.06811191 0.030317336 -0.2536465 0.21069734 0.20902476
-0.120803475 0.022687498 -0.32615623 -0.06338086 -0.093650214 0.005507739 0.12843071 -0.056608852
-0.00048338342 0.27695757 -0.03316935 0.12657185 -0.14977457 0.04137193 -0.21759069 -0.08105208
0.3704081 0.04164458 0.09837113 0.22908725 -0.14631534 0.08164942 0.129705 0.071862444
-0.009562972 0.03344992 0.10834895 -0.11976941 0.022237683 0.053785354 0.40638992 0.18931952
0.021824695 -0.07680383 -0.1681218 -0.0034806675 -0.039208364 0.09867631 0.21200334 -0.06262776
-0.057014253 0.16387434 0.22885846 -0.113478564 0.05686497 -0.020185279 0.12933522 0.08873887
-0.1276896 0.11419741 0.045105994 0.10499263 0.038101647 -0.059594177 0.23704013 -0.13122153
-0.26423523 -0.14938879 0.10425884 0.11456042 0.26025605 0.20335823 -0.0563304 0.036881987
-0.21752942 0.03365451 -0.03238266 -0.053393662 0.06565775 0.0064592287 -0.026249632 0.06996211
-0.018175272 -0.016237378 -0.045903325 0.41904616 -0.21359785 -0.182327 0.09724078 -0.007578643
0.28789514 0.028464682 -0.4206458 0.028142415 -0.1645127 0.40505263 -0.023593755 0.43631512
0.15720782 0.062627435 0.3240691 0.12219952 -0.31089413 0.07363074 0.063344255 0.051014617
-0.029603262 -0.04913114 0.16628924 -0.09170734 0.08872408 0.30990097 0.2415035 0.22702043

fc2.weight f4 [84, 120]
00000000: f3a0 b3bd 3106 f1bd e52c 43be f0ee 44be
00000010: 3e86 423e f2ef 343e 549e c83d 0c7c 1d3d
00000020: c2a1 083c cacb 653d 69e8 d2bd 8662 6dbc
00000030: 50f9 8cbd 18e8 36bc 1550 f43d f332 0d3e
00000040: faec f23d 8714 0b3d 7da3 693d 186a 97bd
00000050: c401 ba3b fa20 b53a 19e3 acbd 9e1f b8bd
00000060: 0294 1dbe 68fe 4bbd 5b15 4dbe 08da c1bd
00000070: dc7a 4bbe 3ddf 2a3d 543d 1fbd 1057 84bd
00000080: bf50 5fbd f0e5 0bbd 4a73 443c 9cb5 52bd
00000090: 929a 6a3d 1b31 f8bc 24fc 04be ffa6 0ebe
000000a0: 3633 14be 13f4 1dbe 1f36 263d b796 70be
000000b0: 40f9 ddbd f062 073d 68a6 f5bd e6b5 77bd
000000c0: 56f2 babd f486 a8bd becb 3abe f112 e23c
000000d0: 7e47 7b3c bfd7 2a3e cef3 31bd cc1f a33d
000000e0: c52e 383e 7602 443e dddc 303c d4e4 c83d
000000f0: 07eb acbd 1885 6ebe 9b8c 13be eb03 cf3d
00000100: eb63 23be 3fc1 dfbd ebbb 8ebd 401c 1f3d
00000110: e9ff 95bd 8b06 96bc 971f 643e d3b9 d03c
00000120: 60e0 683d 8c91 4e3e f20a 20be 3461 30be
00000130: 9714 d7bd 3ddb 9bbd 1741 633e 904e 163d
00000140: de71 113d 7c24 aebd d2ea e1bd 6b37 c9bd
00000150: 8a5f 6d3d 7344 afbb 7036 89bd 1070 9dbd
00000160: 63d0 edbd a895 f5bd 222e eebd bb7c 20bd
00000170: 9f11 49be fc33 5b3e 082b 18be 6b77 313e
00000180: 4443 13bd f93e 083c 9362 e43d bae6 40bd
00000190: 098c 2abd 4479 b53d d88a 153e 7202 3abe
000001a0: 6fce 21be 0a19 44be 8cf2 a7bc 487b 84be
000001b0: a572 91bd 52dc bebd 4f3c b5bd 785e 263e
000001c0: 5286 24bd 2598 0ebe f93e 963c 2cf1 2e3d
000001d0: 6376 49be bedc 23bd 08a5 2c3d 4662 ae3b
000001e0: 3875 58be 6ff9 aabd 564e 34bd e017 b4bc
000001f0: 031e bebd 7b66 e3bd a894 50bd 7109 ce3d
00000200: 1cd6 c0bd 127c 2fbe 9cf3 f33d 203d a6bc
00000210: fdd5 d73b 392b c8bd 33e7 053e 5e65 9ebd
00000220: b3dc d1bc 7bfe 353c f861 37be 02c1 97bc
00000230: baf6 97bd 667c 76bd 2f2c a83d c2ed 96bd
00000240: 29da e9bc 819d 473d 0038 2cbd 103b 1dbd
00000250: fc58 023d 5d4a 8d3d 4790 0bbd 88c6 b3bd
00000260: 44b1 d33d eb22 e13d 1b19 d3bd f6f3 a8bd
00000270: 6e36 ccbc 5ae1 4abd 78a6 60bd d400 f5ba
00000280: d6df 903d 5ac5 b3bd 2673 df3d b31c 8bbc
00000290: 794e 0ebe 49ec 0f3d 1d66 2b3c 7759 b63c
000002a0: e0c7 8dbc f5ec 97bd 0831 2e3c 364a 813d
000002b0: 7cde abbd ed03 29be 0fc5 53be e7f7 013e
000002c0: 90fe 9abd ebe2 243e afd4 933d 15bc 17be
000002d0: e455 eb3d f013 4abd d9b4 003e 7f6a 24be
000002e0: c2aa 47bd 001c cfbd 3b75 2bbd 43ea 71bd
000002f0: bb9b d93d 6ccb c9bd 5e76 c9bc f254 37be
00000300: d5fc 4bbe 0400 96bc e0cc 2c3b 93b1 56bc
00000310: 544f 9e3d b8c5 acbd b567 88bd aeff 85bb
00000320: dcd2 8fbd 0633 59bd fd9f b33d 3a6b 5dbc
00000330: 0de1 f8bc b645 d23d a8b5 81bd 5f9f 86bd
00000340: 9fe0 e53c f26b ed3d 240d b5bd f33c 2c3d
00000350: 5ee1 e7bd 9caa 47bd 7f35 a23c 636a 5d3d
00000360: cffe 013e affa be3c 79a9 75be 81b7 d63d
00000370: 64bc dabd cc35 fb3c 5e9a 47bc 1dca 8b3d
00000380: 60b6 14bd 6cb8 ebb9 6fb6 883d 717f 4b3e
00000390: 801b babd 469e 583e cb9f e33d f1fc d9bd
000003a0: 2136 99bd bd83 acba b00a 413d 777c 26be
000003b0: 6f8c ba3b 1198 c7bd a398 71bc 22c7 1c3d
000003c0: ed0a 0e3d 490d 813d 71e0 183e 2602 633c
000003d0: 30e9 46bd 6ad8 72bd 2aa3 d53b baaf 8a3d
000003e0: 4b28 0dbe fee3 033c 83a0 f03d a375 0bbe
000003f0: ac93 4dbc 8b85 ccbc 0a46 8239 1dea 17be
-0.08770933 -0.11768759 -0.19060095 -0.19231772 0.18996522 0.17669657 0.09795824 0.03844838
0.008339347 0.05610255 -0.10298235 -0.014488822 -0.0688349 -0.011163734 0.11929337 0.13788967
0.11861606 0.033955123 0.05704068 -0.07393283 0.00567648 0.0013819032 -0.08441753 -0.089904055
-0.15388492 -0.049803168 -0.20027678 -0.09465414 -0.19871086 0.041716803 -0.038876846 -0.06461918
-0.054520365 -0.034154832 0.011990378 -0.051442727 0.057276316 -0.030296853 -0.12986809 -0.13930891
-0.1447266 -0.15425138 0.040578958 -0.23494993 -0.10838556 0.03305334 -0.1199463 -0.060476206
-0.09128253 -0.08228865 -0.18241784 0.027596923 0.015336869 0.16683863 -0.0434454 0.07965049
0.17986591 0.19141564 0.010794845 0.098092705 -0.084432654 -0.23292959 -0.14409105 0.10108169
-0.15956084 -0.10925531 -0.06969436 0.0388453 -0.073242016 -0.018313667 0.22277676 0.025479233
0.056854606 0.20172709 -0.15629175 -0.1722458 -0.10501974 -0.07610176 0.22192799 0.036696017
0.035508983 -0.085030526 -0.110311165 -0.09825023 0.05795244 -0.005348736 -0.06699836 -0.0768739
-0.11612012 -0.11991435 -0.11629893 -0.039181452 -0.19635628 0.21406549 -0.14860165 0.1733071
-0.03595282 0.008315795 0.11151614 -0.047095038 -0.041637454 0.0886102 0.14603746 -0.18164995
-0.15801404 -0.19150177 -0.020501398 -0.25875306 -0.07101945 -0.093193665 -0.088493936 0.16246974
-0.04016716 -0.13925226 0.018340575 0.04271047 -0.19674067 -0.040005438 0.042149574 0.0053217737
-0.21138465 -0.08348357 -0.04402002 -0.02198404 -0.09283068 -0.11103531 -0.05092302 0.100603946
-0.09415838 -0.17137173 0.11911699 -0.020292819 0.0065867887 -0.09773869 0.13076477 -0.07734178
-0.025617933 0.011108036 -0.17908466 -0.01852465 -0.07420106 -0.06017723 0.08211552 -0.073695675
-0.02854641 0.04873419 -0.042045593 -0.038386405 0.031823143 0.06898949 -0.03407314 -0.08778101
0.10336545 0.10992988 -0.10307523 -0.08249657 -0.024928298 -0.04953132 -0.054846257 -0.0018692263
0.07073943 -0.08777876 0.10910635 -0.016981458 -0.13897122 0.03513745 0.010461357 0.022259457
-0.017307222 -0.07418243 0.010631807 0.06312983 -0.08392045 -0.16505404 -0.2068064 0.12692223
-0.07568085 0.16102187 0.072183006 -0.14817841 0.11490992 -0.04933542 0.12568988 -0.1605625
-0.04874683 -0.101127625 -0.041859847 -0.0590613 0.10625406 -0.09853253 -0.024592575 -0.17903498
-0.19920667 -0.018310554 0.0026367232 -0.01310386 0.077299744 -0.08436149 -0.066604055 -0.0040893173
-0.0702264 -0.053027175 0.0877075 -0.013514334 -0.03038075 0.102672026 -0.06333476 -0.065733664
0.02806121 0.115928546 -0.08840397 0.042050313 -0.11322282 -0.04874669 0.0198009 0.054056536
0.12694858 0.023312895 -0.2399043 0.10484219 -0.10680464 0.0306653 -0.0121828 0.068256594
-0.03630674 -0.00044960098 0.066754214 0.19872834 -0.090872765 0.21154127 0.111144625 -0.10643948
-0.074810274 -0.001316182 0.047129333 -0.16258417 0.0056930105 -0.09745801 -0.014745864 0.038275845
0.03467839 0.06301362 0.14929368 0.013855493 -0.04856223 -0.05928842 0.006519695 0.067717984
-0.13784902 0.008049963 0.11749365 -0.13619094 -0.012547415 -0.024966022 0.00024847715 -0.14835401

fc2.bias f4 [84]
00000000: 558a 743e 0e3f 963e a79e 8e3e f8db 8d3f
00000010: a077 f0bd 02ec a63e 47d2 073f 913c 9c3d
00000020: c7ae e63e 998b 323e c1c7 ac3e b021 47bd
00000030: 6a36 d6bd 4dd5 213d d667 e9bc 0629 a23e
00000040: 28ce 903d f675 bb3c 500c d53c ab48 bcbd
00000050: e7f1 2f3e caa5 143f cff5 6a3d 0198 603f
00000060: 3763 28be 5738 d13d e14b 923e 54c5 8c3d
00000070: eedf 75bb 8558 4fbd 602f cf3e 26da 2abd
00000080: 993b 013f 7d49 083f 1726 e93e bdc0 e33c
00000090: 7255 ab3a f6dc 823e b65e e63e 5af2 113e
000000a0: bcbd cd3c 8acb d23e dc10 a83e d5d8 973c
000000b0: 5293 db3d e029 5abd b053 243d 1182 bfbd
000000c0: 1282 c13d 6c53 4b3d e67c c03e 37ff 013f
000000d0: 25d8 163e ce00 ca3d 3e0f 003e 305b 4b3e
000000e0: d325 013f eead acbd 9454 79bd 2676 053e
000000f0: ec89 7c3d e1a8 65bb d23e cd3e 488b 1a3e
00000100: e6e0 a83e 3223 f83d 0586 023f 38fe 613d
00000110: 1810 a7bd 2491 59be eedc 4fbd 30b7 173f
00000120: 2f2f d73c d101 90bd 7a51 bc3d f916 2a3e
00000130: 3cab 983e d051 e03d 3554 adbe 6720 f53e
00000140: 47c5 dc3e 77e5 623f ce83 55be 53a5 f43a
0.23880894 0.29344982 0.27855417 1.1082754 -0.11741567 0.32601935 0.5305523 0.076287396
0.4505522 0.17436065 0.3374615 -0.04861611 -0.104595974 0.03951006 -0.028491896 0.31671923
0.07070571 0.022883397 0.026006848 -0.09193548 0.17182122 0.58065474 0.057363328 0.8773194
-0.16444097 0.10215824 0.28573516 0.06873575 -0.0037517506 -0.05062153 0.40465832 -0.04171195
0.50481564 0.53237134 0.45536873 0.027801866 0.0013071729 0.25559205 0.44994134 0.14252606
0.025114886 0.41170913 0.32825363 0.01853601 0.107214585 -0.05326259 0.040118873 -0.0935098
0.09448637 0.049640104 0.3759529 0.5078005 0.1473089 0.09863435 0.12505814 0.19859004
0.5044834 -0.08431612 -0.060871676 0.13033351 0.06165497 -0.0035043287 0.4008699 0.15092194
0.32984084 0.12116088 0.5098575 0.055174083 -0.081573665 -0.21246773 -0.050747804 0.59263897
0.026267616 -0.070315965 0.09195228 0.16610326 0.2981814 0.109531045 -0.33853307 0.47876284
0.4311926 0.88631386 -0.20851061 0.0018664993

fc3.weight f4 [10, 84]
00000000: 8701 5c3e 6ad6 f43d 550c 5ebe f6ac 6abe
00000010: b304 70bd fc0d c63d 5e05 2c3e 2b91 0e3e
00000020: 8501 c3bd d80e 49bd 475b 2b3e e9a1 86bd
00000030: bde6 48bd 7e84 623d 08b5 d13d 620c 6fbe
00000040: 363b 55b9 9d2b 8f3d 9ecd b53d a0f8 80bd
00000050: a872 10be 7431 853e cfc3 0d3e cc61 5dbe
00000060: 6fce e43d 6f36 0cbd aea8 3cbd 673f 4c3e
00000070: 5523 a6bd dd04 2d3d 4c42 5b3e 3076 203e
00000080: cb49 2dbe b521 3b3e daeb 45bd 8417 833e
00000090: 5161 cc3c c9ba 0f3e 1d76 75be 5e21 2a3e
000000a0: 37fe 383e 13d4 1fbe 14e2 6f3e b14c 5f3d
000000b0: 9d9b 313e b07c b9bc 4586 20be 21e2 1dbe
000000c0: 3256 cbbd 1a9f 693c d0ef a43c 4194 a53e
000000d0: 6b60 cb3d 36ae d43b 16f1 0cbe 0472 4bbd
000000e0: 97f8 b4be f283 233e c655 533e fea5 263e
000000f0: 3418 53bd 9381 5f3e 670f 25bd cd97 c4be
00000100: 8699 24be dc9f 033e ef4b ee3c 3ca6 f6bd
00000110: 2adf 543d d3ff c0bd e168 bcbd fe92 c2bd
00000120: c1d8 07be d5f5 7d3e 0c2a 8b3d 7902 26be
00000130: 4c39 4f3e e179 9dbd f2e7 743e 87ce 88bd
00000140: 11ec 043e 527a dbbc 8a63 333e d937 7a3e
00000150: 0887 3cbe b04d 0e3e 14b8 63be 38f5 59be
00000160: bb7b ad3e e956 503e a5e1 69be e5a5 b3bd
00000170: 12b9 fa3d 0c62 9b3d d69c b3bd 24ff b53d
00000180: 4e7e fe3d 8e4e 7cbc a87e 7c3e 0183 b0be
00000190: 3d98 2e3e 490c d83d 51a3 51bd 43cd 3f3c
000001a0: 9957 96be 5fe1 51bd 30be 58bd 14a6 b2bc
000001b0: e260 693e 7dbe d43d 0f2f 223e df8d f1bd
000001c0: fbe6 f03c f02c 063d 3693 97bd f539 ad3e
000001d0: e207 ab3a f4fc 72be 1aa6 003d 27e7 3f3e
000001e0: c9f3 3abb 5cc1 d33e bc7c 73be ecd1 0dbc
000001f0: f706 2b3d 84e0 4b3d 2797 14bb 0415 6b3e
00000200: c03c febd 1b99 b2bd 1610 b23d 28cf 603e
00000210: 18a4 15be cfc0 8bbd 3a57 eebc 20fe 903e
00000220: e4b7 f4bd e05f 3b3e 4769 0bbd 888c 8fbd
00000230: 7b14 86be 7cb3 9ebc 17c0 273e 0de2 debc
00000240: 7ec9 85bc 60f2 e23c 3127 56bd e71f 923c
00000250: 117e 9e3d 5486 cc3d 1e79 7abe 12b7 58bd
00000260: 1f35 26bd cdfc 4f3e e7b0 d3bc 234a 213c
00000270: 22d9 8b3e da58 403e fd12 8d3d 6d39 46bd
00000280: fa41 76be da4a 5bbe d1f9 7b3e 418c c7bd
00000290: 8d75 c2be de1a 85be 0478 90bd 6778 d4bc
000002a0: a102 673c 36fb 083d a127 0b3e c538 f03d
000002b0: 20ff 28be bb81 24be 856f e5bd da63 bbbd
000002c0: 38e4 c6bc 6504 c33d e8b6 a93e b773 7d3c
000002d0: 307a 0b3c e789 6cbd 9b43 01bd 345f 223e
000002e0: 80c1 1ebe 1523 a1be cdce e1bd 4357 e73d
000002f0: 71e3 183e f95a d23d 8c27 a8bd c375 34be
00000300: 9fa7 673d 02bb bdbd abd8 b23c 1388 063e
00000310: d27f 28be fd49 cd3d 25d2 5f3d dcef e7bd
00000320: d6e8 213d 6ada 093e ebaf 4bbd 7202 a1bd
00000330: 6c2f 61bb 5e7c 4dbe b641 8f3e 09b8 933d
00000340: a90c 49bd c685 0ebe 4095 50bd 72f7 e7bc
00000350: d218 653e c9f7 86be 969e e83d 3dce f3bd
00000360: 3cee a2ba c54d ea3b bc65 353d 7434 4fbd
00000370: 325c e23d 3a83 f6bd 1a86 9c3c 34e2 2a3d
00000380: 8d53 983d 9f49 dbbd 80e1 7ebd 5a33 8fbd
00000390: 0931 033e 5630 dd3c 04df 943d 8802 693e
000003a0: ee4c 973d 24ee 92bd 9407 593e e2dc ea3c
000003b0: 5ce9 d93d f9b3 6f3c 0bdd 45bd c9c2 293c
000003c0: a6d7 ddbd 6d77 5e3e e345 273d eadf 25bd
000003d0: 96d5 4a3e a154 e03d 4bb6 c63d aebe 083e
000003e0: 0515 863e cdda bf3d 0288 ef3d 8875 1e3e
000003f0: 3982 493e 343d 2f3d 8943 383e 21c7 543e
0.21484958 0.11954959 -0.21684392 -0.22917542 -0.05859823 0.09670636 0.16798922 0.13922565
-0.09521774 -0.04908642 0.16734038 -0.06573851 -0.049048174 0.055302136 0.10239607 -0.23344567
-0.00020335321 0.069907404 0.08877109 -0.062974215 -0.14106238 0.26014292 0.13844226 -0.21619338
0.111721866 -0.0342316 -0.046059303 0.19946061 -0.08112208 0.042240966 0.21412009 0.15670085
-0.16922681 0.18274577 -0.04832063 0.25603878 0.024948748 0.14036097 -0.23970838 0.16614291
0.18065725 -0.15608244 0.23426086 0.054516498 0.17344518 -0.022642463 -0.1567622 -0.15418293
-0.0992855 0.014259124 0.020133883 0.3233967 0.099305 0.006490494 -0.13763842 -0.04966928
-0.3534591 0.15968302 0.20638189 0.16274258 -0.051536754 0.21826772 -0.040297892 -0.38397065
-0.1607419 0.1285395 0.029088942 -0.120434254 0.05197064 -0.094237946 -0.091996916 -0.09500693
-0.13266279 0.24800809 0.06795129 -0.1621188 0.20236701 -0.07689262 0.23916605 -0.06680017
0.12980677 -0.026791725 0.1751844 0.24435367 -0.18410885 0.13896823 -0.22238189 -0.2128495
0.3388346 0.20345654 -0.22839983 -0.08771876 0.122423306 0.0758706 -0.087701485 0.08886555
0.124264345 -0.015399588 0.2465769 -0.34474948 0.17050262 0.10549218 -0.05118114 0.011706653
-0.29363707 -0.05124032 -0.052915752 -0.021807708 0.22790864 0.10387895 0.15838264 -0.11794638
0.029407015 0.0327577 -0.07401125 0.3383328 0.0013048614 -0.23729306 0.031408407 0.18740521
-0.0028526655 0.4135846 -0.23778051 -0.008656006 0.04175469 0.04977466 -0.0022673102 0.22957236
-0.12413931 -0.08720609 0.086944744 0.21954024 -0.14613378 -0.06823885 -0.029094327 0.28318882
-0.11949137 0.18298292 -0.034035947 -0.07009226 -0.261875 -0.019372694 0.1638187 -0.027207399
-0.01633143 0.027703464 -0.05228347 0.017837478 0.07738889 0.099865586 -0.24460265 -0.052908964
-0.040578004 0.2031128 -0.02584119 0.009844336 0.27314097 0.18783894 0.06888387 -0.04839461
-0.24048606 -0.21415272 0.24607016 -0.09743548 -0.3798031 -0.2599706 -0.07054141 -0.025936319
0.014099748 0.0334427 0.13589336 0.11729578 -0.16503572 -0.16065113 -0.11202911 -0.091499045
-0.024278745 0.095223226 0.3314736 0.015469483 0.0085130185 -0.0577487 -0.031558614 0.1585663
-0.15503502 -0.31472078 -0.11025772 0.11295941 0.14930512 0.10271258 -0.08210668 -0.17623048
0.05655634 -0.092641845 0.021831831 0.13137846 -0.1645501 0.10023878 0.05464377 -0.113250464
0.03952869 0.13462225 -0.049728315 -0.078617945 -0.003436054 -0.20066974 0.2797982 0.07212836
-0.04908434 -0.13918218 -0.050923586 -0.028316233 0.2237275 -0.2636092 0.11358373 -0.11904571
-0.0012430619 0.007150384 0.044286475 -0.050587133 0.11052741 -0.12036748 0.019106913 0.04171963
0.07437811 -0.107074015 -0.062226772 -0.069922164 0.12811674 0.027000587 0.07269099 0.22754872
0.0738772 -0.07174328 0.21194297 0.028669778 0.10640213 0.014630311 -0.048306506 0.010361382
-0.10832147 0.21725245 0.040838134 -0.040496744 0.19808039 0.10953642 0.097027384 0.13353989
0.26187912 0.09367905 0.11695863 0.15474522 0.19678582 0.042782977 0.17994513 0.20779087

fc3.bias f4 [10]
00000000: f968 68be 2e8b 6fbf 2310 29be 16cf 393f
00000010: 5a61 5d3f fbff 69bc 062f 8f3e d122 9fbe
00000020: c070 963e 5eec 0abe
-0.22696294 -0.93571746 -0.16510062 0.72581613 0.8647667 -0.014282222 0.27965564 -0.3108125
0.29382896 -0.1356673
